CupheadDataGenerator/models/hp_tf.onnx (onnx, 93527 bytes, 10 tensors)

functional_1_1/dense_1_2/Cast/ReadVariableOp:0 f4 [32, 4]
000000 28 47 18 3f de be ab be 33 68 8f 3e 0b d8 10 bf
       0.59483576 -0.33544058 0.28009185 -0.56579655
000010 e8 43 dc 3e c3 55 f4 be c5 87 5b be 13 97 14 bf
       0.43020558 -0.4772168 -0.2143851 -0.5804302
000020 14 f7 bc 3e 8b f2 02 bf 61 06 85 3e 0a 42 30 3e
       0.36907256 -0.5115134 0.2598143 0.17212692
000030 96 72 c1 be f9 15 be 3e d2 ef e2 bd f6 f5 8c be
       -0.37782735 0.3712614 -0.11080898 -0.27531403
000040 83 c2 f5 3d 42 e6 a5 be e5 91 7d bd a2 dc 58 3e
       0.11999991 -0.32402235 -0.061906714 0.21177915
000050 f4 f3 89 be e0 82 a6 3e 09 96 86 3c a6 2e 0a bf
       -0.26943934 0.32521725 0.016428964 -0.5397743
000060 b9 b5 39 be 97 1e 26 bd 5d 9c 4d bd ba 3c 39 3b
       -0.18135728 -0.040556516 -0.050197948 0.0028264956
000070 e6 0b 95 3c b2 e4 cd 3e 87 72 00 bd cf 24 99 bd
       0.01819415 0.40213543 -0.03135922 -0.07477724
000080 8c df 8d bd 76 4d 19 3d c9 ed f4 3e b4 bf d4 bd
       -0.06927404 0.037427388 0.47837666 -0.10388127
000090 c8 6f 5f 3e 69 fe 3f 3e 80 e1 fe be 0b 23 b0 3e
       0.21819985 0.18749394 -0.49781418 0.34401736
0000a0 9e ad a2 be 65 ee 36 bd 65 11 45 be e3 37 93 3e
       -0.31773084 -0.044660944 -0.19244917 0.28753576
0000b0 6a b4 0e bf 82 7a fa 3e c9 fe 4a 3d 01 ae c6 be
       -0.5574404 0.4892159 0.04955939 -0.3880463
0000c0 16 d8 18 be da 4a 5a 3e f7 41 76 bd 30 2f c9 3e
       -0.1492618 0.21317616 -0.060121503 0.39293814
0000d0 e3 36 b8 3d e9 ec 17 3e 74 a4 bf be 52 a2 16 be
       0.08994844 0.14836468 -0.37430155 -0.14710358
0000e0 2a 3e ae bd a2 34 b3 be f7 27 d1 be 20 bb 9a 3e
       -0.085079506 -0.35001093 -0.40850803 0.3022089
0000f0 16 e2 2e be e5 f0 aa 3d 9c e1 a1 be 05 68 03 be
       -0.17078432 0.08346728 -0.3161744 -0.12832649
000100 62 c9 b4 3e 4c 37 68 3e 9a 24 99 be cb 91 45 3c
       0.35309893 0.22677344 -0.29910737 0.0120586855
000110 9d 86 19 3f 81 c4 00 be f8 85 a9 be 03 ea de be
       0.5997103 -0.1257496 -0.33110023 -0.43537912
000120 01 a5 53 3e fe 19 4a 3e 4a 91 75 be 67 6f 07 3e
       0.20668413 0.19736478 -0.23981205 0.1322609
000130 a8 a2 95 be fe 44 c6 be ca cf 85 be 22 22 c7 be
       -0.2922566 -0.38724512 -0.26135093 -0.3889323
000140 a2 c4 99 3d 93 6d 8d 3e cb 71 eb be 82 92 e7 be
       0.07508208 0.2762266 -0.45985255 -0.45228964
000150 e3 89 7e 3d c2 60 27 3d 92 fa 42 3d 46 7c 89 3e
       0.062143218 0.04086376 0.047602244 0.26852626
000160 b9 a2 df be c4 a5 de 3e 22 e0 b6 3e 08 b6 e0 be
       -0.43678835 0.43485844 0.35717875 -0.4388888
000170 94 2a b3 be 1d 2b 89 3e eb 69 d7 be 24 58 c7 3d
       -0.34993422 0.26790705 -0.42072996 0.09733608
000180 5c ba 01 3e 65 76 85 bd cc 70 8f be d9 15 6c be
       0.12668747 -0.065167226 -0.28015745 -0.23055209
000190 be 44 1a 3e 18 e6 3a be 11 02 c5 be 3e 84 d3 3e
       0.15065286 -0.18251836 -0.3847814 0.4131183
0001a0 97 b3 10 be 3a 55 67 be 5e aa 20 3e 72 05 1b be
       -0.14131008 -0.22591105 0.1568999 -0.15138796
0001b0 8f 42 c2 be 9e 11 1c be 52 87 fd 3d c5 27 88 3e
       -0.37941405 -0.15241095 0.12379326 0.26592842
0001c0 b5 0d 4a be b1 8b d5 be 92 b6 55 be df c1 e8 3d
       -0.19731791 -0.4170814 -0.20870426 0.11365103
0001d0 58 67 66 3d 51 1b 81 3e 5c 6b 83 be d3 bd 53 be
       0.0562509 0.25216153 -0.25667846 -0.20677881
0001e0 8b 6d fc 3d 1f 26 55 be 30 9a 45 be 68 71 a6 3e
       0.12325581 -0.20815323 -0.19297099 0.32508397
0001f0 78 d9 a8 be d6 2e ad be c7 0d 37 be 40 03 fb 3d
       -0.32978415 -0.33824795 -0.1787635 0.12256479

functional_1_1/dense_1_2/BiasAdd/ReadVariableOp:0 f4 [4]
000000 b0 c7 33 3d 76 d4 7a bb a1 68 da bc 04 1d 23 bc
       0.04389161 -0.003827361 -0.02666122 -0.009955648

functional_1_1/dense_1/Cast/ReadVariableOp:0 f4 [512, 32]
000000 be 6a cd 3c 3b a1 06 3d 51 ef ba bc f7 81 8d 3d
       0.025075313 0.032868605 -0.022819193 0.069095545
000010 4c ba 53 3d f9 8b 97 3d f3 99 94 3d 1d a6 a9 3d
       0.05169134 0.073997445 0.07255926 0.08283637
000020 01 4b 97 bd c9 c0 00 3d b0 4a a6 bd b5 0c c3 3d
       -0.07387353 0.031433854 -0.08119714 0.09523908
000030 a6 27 2b bd 03 60 d8 bc dc 61 e8 bc 36 99 bc bd
       -0.04178586 -0.02641297 -0.028366975 -0.0920891
000040 54 8f 46 bd dc 6c 03 bc 1b 19 81 3d 04 76 10 bd
       -0.048476532 -0.00802156 0.063036166 -0.0352688
000050 b1 c6 06 3c 22 58 e2 bc 71 cc 0f 3e b7 c0 da 3d
       0.008226083 -0.027629916 0.14042832 0.10681289
000060 71 5a cf bd 76 43 1a bd 6d 47 b0 3d 0d a7 ca bd
       -0.10124672 -0.037661992 0.086073734 -0.09895144
000070 93 56 94 3d 0f 68 88 3c 82 f9 9b 3c 78 07 00 bc
       0.07243075 0.016651182 0.019039873 -0.007814281
000080 8b c1 66 bd 12 91 06 bd 37 48 1b 3e ec 53 89 3d
       -0.05633692 -0.032853194 0.15164267 0.0670546
000090 9b 69 b2 bd 1a 25 6f bd d9 df ae 3d d6 0e 21 3c
       -0.08711549 -0.058384992 0.08538789 0.009830197
0000a0 65 82 7d 3d c3 1d 9c bd b0 d9 bc 3b c4 20 56 3b
       0.061891932 -0.07622864 0.005763255 0.0032673338
0000b0 2e 89 84 bc 7c 29 9f 3d a5 6a 8a bd bf 7a d3 bd
       -0.016178694 0.077715844 -0.06758622 -0.10326146
0000c0 7f 84 01 3d b2 ff 92 bd b2 1c ba bd 08 ef a9 bd
       0.0316205 -0.07177676 -0.090875044 -0.08297545
0000d0 76 30 85 3d 03 88 01 bd 93 b3 82 bc 0e 99 17 bd
       0.06503384 -0.03162385 -0.015954768 -0.0370112
0000e0 22 b0 23 3c 67 bb a6 3d 20 33 bc 3d 53 b0 c3 3d
       0.009990724 0.08141213 0.09189439 0.095551156
0000f0 d6 a0 7f 3d c4 5c 7e 3c 64 32 42 3d 01 77 90 bd
       0.062409244 0.015525047 0.047411337 -0.07053948
000100 31 29 8a ba 1b d9 50 3d db f5 a5 bb ed 48 85 3d
       -0.001054084 0.050988298 -0.0050647086 0.0650805
000110 e8 2d 3b bd 8d d2 36 3c 35 17 b6 bd 61 66 ca 3c
       -0.045698076 0.011158598 -0.08891145 0.024707021
000120 18 36 eb bd bd 01 93 3d ae 98 f8 bd 93 f6 a0 3d
       -0.11484927 0.07178066 -0.12138496 0.0785953
000130 b3 04 de 3c bf 26 82 3c 29 54 a0 bd 07 31 87 3d
       0.02710185 0.015887616 -0.07828552 0.06601148
000140 f6 5b 67 3d dc 7e d2 bb 52 cb ef bc 94 6e aa 3d
       0.056484185 -0.006423814 -0.029271755 0.08321872
000150 6f c2 a4 bd 67 5b 49 3d b7 e2 4b bd be f1 17 bc
       -0.08044898 0.049159434 -0.04977676 -0.009273944
000160 aa 75 d4 bd ad aa 17 3b de d2 ff bc bb 16 b4 3d
       -0.10374005 0.0023142502 -0.031228479 0.08793398
000170 08 7b 86 ba 31 e1 a0 bc 9c e8 a8 3c cb d1 c7 3d
       -0.0010260055 -0.01963863 0.02061873 0.09756812
000180 eb 95 d2 3c ab d2 6e 3d de 38 2d bd 8c 75 ee 3d
       0.025706252 0.058306377 -0.04229056 0.11643514
000190 1e b0 4d bd 76 81 9d bb 12 a7 51 3c fe 15 d7 bd
       -0.050216787 -0.0048066927 0.01279618 -0.105022416
0001a0 80 24 ea bc 32 e8 b9 bd 1c b1 15 3d 52 a9 4d 3c
       -0.028581858 -0.09077491 0.036545858 0.012552576
0001b0 db ab 42 3d b3 4e a6 3d 89 87 6d bd e0 c4 db bd
       0.047527175 0.081204794 -0.057990585 -0.1073091
0001c0 9b 74 c0 bd 6e 04 2b bd 53 3b 51 bd 49 47 b1 3d
       -0.09397241 -0.04175227 -0.051081967 0.08656175
0001d0 51 65 8b bd 8c 4d 0d 3d e0 51 d2 3d ca 9d 76 3d
       -0.06806434 0.034497783 0.10269523 0.060209073
0001e0 71 49 5e 3d c5 9f b3 bd 0f 83 af bc e7 d5 f5 bc
       0.054269258 -0.08770708 -0.021424798 -0.030009223
0001f0 f0 3a 0a 3c 0c 43 d9 bc 2e 69 68 bd 73 5a ba bd
       0.008436903 -0.026521228 -0.056740932 -0.09099283
000200 32 94 ca 3d 78 ee 81 3d 99 98 e4 3d 24 94 0e 3d
       0.09891547 0.063443124 0.11161918 0.034809247
000210 c2 f9 3a bd c0 d9 89 bc 3c 46 d1 bd 48 c8 2c 3d
       -0.045648344 -0.016827464 -0.10218474 0.04218319
000220 c4 51 62 bd 89 30 7a 3d d1 d5 25 bd 44 63 60 bd
       -0.05525376 0.061081443 -0.040487114 -0.054782167
000230 95 1b 3e bd aa f5 b2 3d 9f 03 fa bc bf 3d d7 3c
       -0.046413023 0.08738263 -0.030519305 0.02627456
000240 ab 4d eb 3d a4 3a ed 3c 05 50 c9 3d 15 18 62 bd
       0.11489423 0.028958626 0.09829716 -0.055198748
000250 20 04 88 3d d2 1c 59 bc 51 18 fd 3c bc 3f 96 3b
       0.06641412 -0.0132515 0.030895384 0.0045852344
000260 89 5a 2f bd 41 ea b9 bd 5f f1 75 3c cf d9 35 bd
       -0.04281095 -0.090778835 0.015011161 -0.04439717
000270 ce 6c a3 bd 55 28 80 3d 5e c6 a0 3c 50 c2 2c bd
       -0.07979737 0.06257693 0.019625839 -0.0421775
000280 e3 a3 89 bd c4 91 a7 bc 80 23 4d bd 9d 2d 33 bc
       -0.06720712 -0.020455249 -0.050082684 -0.010936168
000290 59 33 f5 3c d9 8f 0d 3d 2c ca 8b 3c 0e 77 8a bd
       0.029931711 0.034561012 0.017064176 -0.06760989
0002a0 02 9e 4c bb 3d 15 01 be 9a e4 aa 3c c7 40 f2 bd
       -0.003122211 -0.12605758 0.020860959 -0.118287615
0002b0 65 af b3 bd 88 c1 80 bd 78 39 1c bc 2b f6 32 3d
       -0.08773688 -0.06286913 -0.009535186 0.043691795
0002c0 c2 f7 ff bb b2 d1 a5 3d 32 1e cc bd 54 93 a2 bd
       -0.0078115175 0.08096637 -0.09966697 -0.07938257
0002d0 1d 77 71 3d c1 97 e2 bd ee ee 90 bd 99 33 2f 3d
       0.058951486 -0.11064101 -0.07076822 0.042773817
0002e0 fe ba e6 bd 71 52 60 3d 1f ac 9f bc 4f b3 1d bd
       -0.11266135 0.054766122 -0.019491253 -0.03850108
0002f0 e7 b3 57 bd c9 0b 5c 3d 50 8f fc 3b 00 ac 94 b9
       -0.052661803 0.053722177 0.007707514 -0.0002835691
000300 88 8a 4e bd 9a 4e 11 be ae 2b ef bd f5 af 54 3d
       -0.050425082 -0.1419014 -0.11678253 0.05192562
000310 db 5a fa bc 70 a4 cc 3c f8 72 24 3d 00 3f cf 39
       -0.030560901 0.024980754 0.040148705 0.00039529055
000320 4a fe a0 bd 74 2c 1e 3d 22 10 bc bd 50 18 f8 3d
       -0.07861002 0.038616613 -0.091827646 0.12114012
000330 ef 32 87 bd ad 1c d3 3d 04 63 d9 bd 6d 2c a9 3d
       -0.06601512 0.10308204 -0.10614589 0.08260427
000340 87 01 b0 bd 13 01 15 3d af c6 df bd 79 05 13 bc
       -0.08594041 0.036377978 -0.10926568 -0.008973473
000350 77 79 04 be 27 8a 8c bd d3 20 a8 3d 05 60 22 bd
       -0.1293696 -0.06862288 0.08209386 -0.039642353
000360 fb af d7 bd d4 be d5 bd e6 96 33 bc 3e 60 dc 3c
       -0.105316125 -0.10436788 -0.01096127 0.02690136
000370 ef c9 02 bd 6b f1 00 be 24 ab c9 bd 07 ac 3c bd
       -0.03193086 -0.12592094 -0.098470956 -0.046062496
000380 80 d1 d3 3d 27 98 6d 3d 5a 3d a3 bc b0 29 7f 3d
       0.10342693 0.058006432 -0.019926716 0.062295616
000390 d4 83 67 bd 67 81 49 bd 76 00 b6 3d 64 b8 92 bd
       -0.056522205 -0.049195673 0.08886807 -0.07164076
0003a0 90 2e 1a bd 5d eb b2 3d 65 cb 38 bd 2c e9 17 bd
       -0.03764206 0.08736298 -0.045115847 -0.037087604
0003b0 6f bf 97 3d f5 da 92 bd 9e 7f 9f bd 78 30 89 bb
       0.0740956 -0.07170669 -0.07788013 -0.004186686
0003c0 e4 30 90 3d 67 b9 a9 3d aa a9 8b bd 36 e7 5d bd
       0.07040575 0.08287316 -0.0681947 -0.054175578
0003d0 ee 5c e5 3d b0 3f 90 3c bb d3 df 3d 65 24 ae 3d
       0.111993656 0.017608494 0.10929056 0.085030355
0003e0 ea bd b4 3c 90 a8 36 bd 9a d0 74 bb 4d 6c df bc
       0.022063214 -0.044594347 -0.0037355782 -0.027273322
0003f0 d3 ec 04 3d 93 71 e0 3c 2a 15 a0 3d c7 c7 7b bd
       0.032452416 0.027397906 0.07816537 -0.06146982

functional_1_1/dense_1/BiasAdd/ReadVariableOp:0 f4 [32]
000000 01 19 bb 3c 6b 97 85 3d 72 62 ac 3c 88 90 04 3b
       0.022839071 0.06523021 0.021043036 0.002022775
000010 45 d3 e9 bb 35 ab 87 3c 05 9c c4 bb 57 d2 c3 bb
       -0.007135781 0.01656113 -0.0060000443 -0.005976002
000020 9a e3 e1 bc e2 19 8c 3c 88 74 db bc 38 9e ab bb
       -0.02757435 0.017102186 -0.026788965 -0.005237367
000030 60 44 f3 bb 29 f2 c8 bb 04 ff a4 3b a9 1b eb bb
       -0.0074239224 -0.0061323834 0.005035283 -0.007174928
000040 d1 f0 3a 3d 2e 6c 61 3d 8e b5 37 3d 0e e1 e5 bb
       0.045639817 0.05503481 0.04485088 -0.007015354
000050 2b eb 12 3d bd e8 8e bc 27 06 5d bc bd 93 ab 3b
       0.035868805 -0.017444963 -0.013490236 0.0052361176
000060 7d ac 1c bc 61 28 ea 3b 0d ee e9 bb ae ee 09 bd
       -0.009562609 0.007145927 -0.0071389736 -0.03367489
000070 4e d2 e6 bc 92 20 fe 3c 29 11 1c 3b 00 00 00 00
       -0.028176453 0.03102139 0.002381394 0.0

functional_1_1/conv2d_2_1/convolution/ReadVariableOp:0 f4 [32, 16, 3, 3]
000000 82 ff 13 bd a3 66 e7 bd 78 a1 3d bd f4 d4 2a be
       -0.036132343 -0.11298873 -0.046296567 -0.16682798
000010 48 f9 96 3d 7f fe 30 3e c3 1e a6 be b8 bb 0d 3e
       0.073717654 0.17284583 -0.32445344 0.1384114
000020 c6 e3 1f be bb 6b 32 be cf 1b dc bd 73 78 8c 3e
       -0.15614232 -0.17423908 -0.107474916 0.27435645
000030 67 f7 06 3d 31 94 a4 bd ca a8 89 3d 4d 2a e5 3d
       0.032950785 -0.08036078 0.06721647 0.11189709
000040 05 b1 88 3d 6c 1f ba 3c 42 07 a6 bd 5e 31 04 bd
       0.06674389 0.022720061 -0.08106853 -0.032273643
000050 d2 b9 c9 ba ba 5b 78 3d 00 6a ba 3d fa 8a d7 bc
       -0.0015390462 0.060634352 0.09102249 -0.026311386
000060 da 13 dc 3d 7f 01 3a 3d 5d cf 33 bd ef 6e 84 bd
       0.10745974 0.045411583 -0.04389893 -0.064664714
000070 95 bc b5 bd 43 47 19 bd eb 7b 91 3d 00 80 3c 3b
       -0.0887386 -0.037421476 0.071037136 0.0028762817
000080 27 c2 f2 3d 5b 23 07 be bd 71 85 3d d3 fa 06 be
       0.11853438 -0.13197081 0.065158345 -0.1318162
000090 07 40 2d be 35 57 dd 3d 88 a3 85 bc 8a 92 73 bd
       -0.16918956 0.10807649 -0.01631333 -0.059465922
0000a0 34 58 38 3d b0 72 ab 3b 02 6c 25 bd 89 f9 51 bd
       0.045005992 0.0052321777 -0.040386207 -0.051263366
0000b0 22 70 f6 3a 64 81 0e be da a8 91 3c b8 49 97 3d
       0.0018801729 -0.13916546 0.01778071 0.073871076
0000c0 2b a1 21 be cb 3b 50 3d 4b cc 32 3e 6e ac 0f 3c
       -0.15784137 0.050838273 0.17460744 0.008769138
0000d0 92 a5 13 bd d2 eb 8b 3c 3c 14 e9 3c 43 58 22 3e
       -0.036046572 0.017080221 0.028452031 0.15853982
0000e0 6e 4d 40 3d 87 a0 a4 bc a5 27 8a 3c de 6a 9e 3c
       0.046948843 -0.020096077 0.016864607 0.019338068
0000f0 6e ac ee bd 46 2b d4 bd 12 8e 0d be 6e c0 91 be
       -0.11653982 -0.10359816 -0.13823727 -0.28467125
000100 81 32 fc 3d a8 49 dc 3d 8a d2 d1 bd cc be 55 3e
       0.1231432 0.10756236 -0.10245235 0.20873564
000110 c2 cf 5f 3e 5f ad 2b 3e a1 23 5a 3e a5 45 9f 3d
       0.21856597 0.16765355 0.21302654 0.077769555
000120 0c 3c 6b be 19 7f d0 3b 2d bf 01 3e fb 4e 12 3d
       -0.22972125 0.0063628075 0.12670584 0.035719853
000130 47 1f f4 3d 17 47 77 3e 38 57 69 3d 82 72 4f 3e
       0.11920028 0.24148212 0.056967944 0.20258525
000140 76 db 37 3d c9 c1 ca 3d 3e 5c f4 3d 32 ba 02 3e
       0.04488703 0.09900243 0.11931656 0.1276634
000150 fc c8 b6 3c 9b b2 59 3e ba 0c 4b 3c 1e 49 b8 3d
       0.022312634 0.21259539 0.012393171 0.08998321
000160 b2 bb 02 3e ff c0 87 bd c8 9f f3 3b 0a 31 83 3d
       0.12766913 -0.06628608 0.007434819 0.06405838
000170 4a d1 2b be d9 f0 a1 3d 24 8f 04 3e ca 3e 10 ba
       -0.16779056 0.07907266 0.12945229 -0.00055025204
000180 c1 77 cd 3c fd 63 c4 3c df e3 07 3c 03 76 39 be
       0.025081517 0.02397346 0.008294075 -0.18111424
000190 df 17 64 3c 19 de cc 3d 9f 41 70 be 63 6e c4 3d
       0.013921707 0.10003299 -0.23462532 0.09591367
0001a0 2a 47 3a 3e e6 e2 08 be 9d 5a 31 3e c1 60 69 3d
       0.1819121 -0.13367805 0.17319722 0.056977037
0001b0 b9 01 84 bd 27 64 06 bd 8d 5e 05 3e 8c e4 d7 bd
       -0.06445641 -0.032810356 0.1302435 -0.10541639
0001c0 36 16 77 3e a7 99 3f 3c 22 bb f0 bc 71 ca 6f 3e
       0.24129567 0.011694348 -0.029386107 0.23417069
0001d0 60 8b 18 be 5e ab 54 3d 8f ea b7 3d 41 91 5b 3d
       -0.14896917 0.05192124 0.089802854 0.05360532
0001e0 77 b8 03 be 86 a6 47 3d 8e 7d 00 be 16 39 03 be
       -0.12863337 0.048742794 -0.12547895 -0.12814745
0001f0 e0 e2 d8 bd 36 f2 d3 3b 9f 79 f5 bd 43 1b 19 bc
       -0.10590148 0.006468083 -0.11986088 -0.009344879
000200 df ea 86 bd a8 bd 18 3d b3 6d 1c bd 19 60 f8 3d
       -0.06587767 0.037290245 -0.038190555 0.12127704
000210 91 31 0c 3e 65 c4 d3 bc ba 1a 0f 3e 1c b9 ab 3d
       0.13690783 -0.025850484 0.13975039 0.08384916
000220 6b 09 0c bc b2 71 ad bd ab 8c 82 3d 97 62 28 3d
       -0.008547167 -0.08468951 0.063744865 0.041109648
000230 c7 c5 97 3d c3 c4 59 bd 92 a1 c3 3d 21 45 f0 bd
       0.0741077 -0.053166162 0.095523015 -0.11731935
000240 bb 28 c9 bd 24 d0 27 be 9a 74 3c be 3f 06 86 3d
       -0.09822222 -0.16387993 -0.18403855 0.0654416
000250 22 fc 1f 3d 53 97 11 be 3d d9 aa 3d a0 27 6a 3d
       0.039058812 -0.14217882 0.08342216 0.057166696
000260 e4 4a 03 bc 74 9d 9b bd 55 d0 f6 bd 7c 2b e1 bd
       -0.008013461 -0.07598391 -0.12051455 -0.10994622
000270 93 92 a9 bd 40 6b 30 bd 5f 2b 4e 3d 5e e3 ab 3d
       -0.0827991 -0.04307103 0.05033433 0.08392976
000280 61 90 25 3e 66 b5 89 3d 90 4c b6 bd 20 56 d5 bc
       0.16168357 0.06724052 -0.08901322 -0.026042044
000290 35 09 6e bd 8b 51 87 3d 00 62 58 3a 6f de b3 3d
       -0.05811425 0.0660735 0.0008254349 0.0878266
0002a0 ae b8 e3 3d 87 76 bd bd af 78 2c bd a5 7a b7 3c
       0.11119209 -0.09251123 -0.04210728 0.022397349
0002b0 6c d2 94 bd 49 46 44 3d 2e 31 2f 3d 9e 1a 20 3e
       -0.07266697 0.04791859 0.04277151 0.15635154
0002c0 d6 69 2c 3e 3f ee 0b 3e 58 f6 ca 3d 59 76 aa 3d
       0.16837248 0.13665102 0.099102676 0.08323354
0002d0 2f 9e 7e be fb 9c 31 be 62 02 61 bd 1d ab ec bd
       -0.2486503 -0.1734504 -0.054933913 -0.11556075
0002e0 21 5f b7 3c 52 22 cc bd 0c 48 c9 3c d7 13 26 3e
       0.022384228 -0.099674836 0.024570487 0.16218506
0002f0 0e ee a9 bd 7e 80 d4 bd 92 08 23 be c6 aa dc 3b
       -0.082973585 -0.103760704 -0.15921238 0.006734225
000300 d6 36 f2 bd 79 5e 78 bd c2 d5 af 3d 34 1e 94 bd
       -0.118268654 -0.06063697 0.08585693 -0.07232323
000310 78 03 90 3d 77 9b 46 3d 94 9f 7e bd f7 cc 47 bc
       0.070319116 0.048488107 -0.062163904 -0.0121948635
000320 ce 85 00 3e 77 ca 96 bd e7 8c a5 3d b6 4c 39 3e
       0.12551042 -0.07362836 0.080835156 0.18095669
000330 32 01 b1 bd ee bc 9c 3c 95 ab 03 3c ac 81 1a be
       -0.08642806 0.019133057 0.008036514 -0.15088528
000340 6b f2 51 be 5a c2 53 bd b7 5e cb be ac ec cc bd
       -0.20502631 -0.05169902 -0.397207 -0.10006079
000350 04 cb 55 3d 25 bb 38 be fa 1a 31 3e b5 3e e2 bc
       0.052195564 -0.1804014 0.17295447 -0.027617792
000360 07 35 8a be ba a3 a3 be 55 65 6b be 2d 11 a5 be
       -0.26993582 -0.3196085 -0.22987874 -0.32239667
000370 39 9c a8 be 08 81 11 be 1d 71 30 be 1b 9b d5 bd
       -0.32931688 -0.14209378 -0.1723065 -0.10429975
000380 91 aa 62 bc 3f 10 8e bd 91 80 b8 bd 4c 10 db 3d
       -0.0138346115 -0.069366924 -0.09008897 0.10696468
000390 31 81 78 bb 54 cf 06 3e 61 42 62 3d fa ec 16 bd
       -0.00379188 0.13165027 0.055239085 -0.036847092
0003a0 58 8f 06 3e 30 ba 07 3d 18 5d 5a bd c0 13 24 be
       0.13140619 0.033136547 -0.053311437 -0.16023159
0003b0 24 4e fb 3c a0 ad 71 bd 3d fd af bb 95 ad 5a bd
       0.030676909 -0.059003472 -0.0053707645 -0.053388197
0003c0 1a 12 37 be fa 06 76 3c ae 9e 6f 3e a4 0f d4 bd
       -0.17877999 0.015016312 0.23400375 -0.10354546
0003d0 aa 21 ae bd b1 b2 09 be 8b 9d db bd 23 92 2c bd
       -0.08502515 -0.13447072 -0.10723408 -0.042131554
0003e0 e4 53 9f 3d 49 c5 04 bd c5 e3 34 3e ad 86 5b 3c
       0.07779673 -0.03241471 0.17665012 0.013398808
0003f0 74 57 ac bc 71 2b 08 bc fe 4c c5 bd 17 9f 9c 3d
       -0.021037795 -0.0083111385 -0.09633826 0.076475315

functional_1_1/conv2d_2_1/Squeeze:0 f4 [32]
000000 aa 9c 58 ba 1d d5 90 bd be 26 77 ba 68 77 b6 3c
       -0.0008263091 -0.07071898 -0.0009428075 0.022273734
000010 a9 78 22 3d d2 6a 02 3d de 18 5c bc ce cf c6 b9
       0.03966585 0.031840153 -0.013433663 -0.0003792033
000020 4e a8 52 bd 9b be 88 bd 98 3b c6 3c d0 51 45 3d
       -0.05143004 -0.0667698 0.024198338 0.048173726
000030 b5 bd 01 bd d0 12 70 bb 8d 44 ba ba df 6a c5 bc
       -0.03167506 -0.0036632307 -0.0014211104 -0.024098812
000040 1f 1d 92 bd 24 5c b2 bc 8c 04 3a be 0a e9 fc bc
       -0.07134461 -0.021772452 -0.18165797 -0.03087284
000050 98 fe 8b 3c 28 52 b8 bc 8b 47 06 3c 81 04 21 3d
       0.017089173 -0.022500113 0.008195768 0.039310936
000060 21 d1 7f 3d 8f fb f3 bc 01 9f 6e bb 95 f3 a5 3d
       0.0624553 -0.029783038 -0.0036410692 0.081031
000070 38 91 36 3d 88 a6 1b bd 80 6f 81 bd b0 d6 fa bc
       0.044572085 -0.038000613 -0.06320095 -0.03061995

functional_1_1/conv2d_1_2/convolution/ReadVariableOp:0 f4 [16, 8, 3, 3]
000000 ae 81 06 3e 62 08 36 bd dd 4b 0a 3f f7 40 04 bc
       0.13135406 -0.04444159 0.5402201 -0.008072129
000010 7e 24 87 bd 02 a2 d8 3e 73 37 8b bd 19 3f e8 bd
       -0.06598757 0.42311102 -0.067976855 -0.1134016
000020 c3 87 be 3d 45 54 48 3c f9 37 a8 bd 51 0e a0 be
       0.09303238 0.012227123 -0.08213801 -0.31260923
000030 5e c5 48 3b 74 42 ef 3d 93 19 9b 3d ec 9d 55 be
       0.0030635218 0.11682597 0.07573237 -0.20861024
000040 43 41 3c 3e 0b df 84 3d 46 a1 0b 3e d2 cb 24 be
       0.1838427 0.064878546 0.1363574 -0.16093376
000050 d1 63 8c 3c 63 a4 95 bc 00 29 15 3e 50 57 f6 3c
       0.01713744 -0.018266862 0.14566422 0.03007093
000060 fa c3 c4 3d b3 84 8d bd 04 17 f3 3d 56 08 0b bd
       0.09607692 -0.06910076 0.11869624 -0.033943497
000070 e4 54 1d bc ad e3 98 3e 85 00 e7 bc d8 c7 41 3e
       -0.009602759 0.29861203 -0.02819849 0.1892389
000080 a0 5a 04 3f eb 41 53 be 13 cf f6 bd dc 46 7e 3e
       0.5170078 -0.20630614 -0.12051215 0.24831718
000090 88 34 65 3d 9d 16 cb 3b b4 17 26 be 77 38 a9 bb
       0.0559583 0.006197764 -0.1621998 -0.005164202
0000a0 66 60 92 3e 52 97 94 be 2b 64 25 be b7 9d 15 3e
       0.2858917 -0.29021698 -0.16151492 0.14610945
0000b0 a1 98 ad bd 0c be 20 3e d0 f6 1e 3e 5c e6 b9 bd
       -0.08476377 0.15697497 0.15523839 -0.09077141
0000c0 60 de 15 3e 09 41 83 3e 40 d4 8d be d9 d0 0f 3e
       0.1463561 0.25635555 -0.27700996 0.14044513
0000d0 82 65 63 3e d3 dd 91 be e6 5a a6 3d 51 90 cd bd
       0.22206691 -0.2848955 0.08122806 -0.10037292
0000e0 c0 13 a0 bd 42 61 04 bd 89 40 aa 3c b8 e6 b9 bc
       -0.07816267 -0.032319315 0.020782726 -0.022693023
0000f0 4a 2d 09 be 5a b8 87 3d 6e e1 23 be 1e 19 c5 bb
       -0.13396183 0.06626959 -0.16003963 -0.006014957
000100 e9 2f 26 3e af d9 2d 3e 97 e3 d8 3d 98 14 fa bd
       0.16229214 0.16977571 0.10590284 -0.12210959
000110 87 af 1b 3e 62 81 37 3c 1c 0e e4 3d 64 c8 d0 bb
       0.15203677 0.011200281 0.11135504 -0.0063715447
000120 35 00 d8 be 1e b0 82 be 03 00 0e be 9a 33 ab 3e
       -0.42187658 -0.25524992 -0.13867192 0.33437806
000130 c1 4c 6c bd 3b e4 10 be 3c ad 2c bc fd cb ce be
       -0.057690386 -0.14149563 -0.010539349 -0.40390006
000140 cd 71 fb bd 88 42 89 3e 4e 9b ce bc e3 bb d9 3d
       -0.12277565 0.26808572 -0.02522054 0.1063154
000150 50 89 e9 be 49 f9 93 bd 43 e4 1a 3e 2d cc 54 bc
       -0.45612574 -0.07225282 0.15126137 -0.012988132
000160 2d fb 3a be 86 f1 f4 3d e2 aa ca 3d 46 34 8f bd
       -0.18259878 0.119601294 0.098958746 -0.06992392
000170 46 f9 97 bd 96 33 01 be ee d3 06 be 10 72 0a be
       -0.07420592 -0.12617335 -0.13166782 -0.13520074
000180 4b d1 91 bd 58 e2 dc 3c f6 bc ab bd 88 1f e1 be
       -0.071199976 0.026963398 -0.08385651 -0.4396937
000190 7f 0f 1d bc 3b 74 8f 3b 44 85 b0 3d c3 dc 8b 3d
       -0.009586214 0.0043778694 0.086191684 0.06829216
0001a0 3c bd 59 bd 93 bc 59 3e a2 5d 82 be fb dc 7d be
       -0.053158984 0.21263342 -0.2546206 -0.24791329
0001b0 77 e1 28 3e 68 56 0e 3e 34 d1 0b 3d 9b 64 88 bd
       0.16492258 0.13900149 0.03413506 -0.06659814
0001c0 33 a2 14 3e cf 72 bd 3c 50 d5 77 be 4c d1 72 be
       0.14514999 0.023126034 -0.24202466 -0.23712653
0001d0 70 3f e1 3d ea 21 c5 3d fc 7d a4 3c 9f 2d ad 3d
       0.10998428 0.09625609 0.020079605 0.08455967
0001e0 50 00 59 3e 99 bf 4a 3d 63 e7 95 3e 4d a8 9d bc
       0.21191525 0.049499128 0.29278097 -0.019245291
0001f0 3d 7d 59 3d 0a 6d 56 3e a0 4b 35 bb 1e c0 04 3c
       0.053097952 0.20940033 -0.0027663484 0.008102445
000200 a1 8a 97 3d 0e ab 05 bc b7 c8 af 3d 10 d7 46 3d
       0.07399488 -0.008158458 0.08583205 0.048544943
000210 c3 96 8b be 9b 9f 06 be 18 7f 10 3e 9e 80 63 3e
       -0.2726346 -0.13146822 0.14110982 0.22217032
000220 bc bf ff 3d 40 08 5c 3e 79 f1 e8 bd 47 02 b6 bc
       0.12487742 0.21487522 -0.11374182 -0.022217883
000230 6d fe 65 3e de c5 6c be 09 7a 49 bc 6f 21 a0 bd
       0.22460337 -0.23122355 -0.012297162 -0.07818877
000240 5b 22 a0 3d 01 b3 4f bd 40 fb 11 3c ca 6b ec bd
       0.07819053 -0.05070782 0.00891 -0.11543997
000250 8b d8 31 be f0 75 18 be 45 5a 3e 3d d5 1c f2 bc
       -0.17367761 -0.1488874 0.046472806 -0.029554764
000260 7c 7e be bd a4 bb 07 be 38 4d a6 bd 4b 3d 25 3e
       -0.09301469 -0.13255173 -0.08120197 0.16136663
000270 88 f6 fa 3d 41 27 2c be 96 8b b1 3d 4a 1d 1e 3d
       0.12254053 -0.16811849 0.08669202 0.03860215
000280 c0 c4 61 bc e1 db 52 3d 40 92 ee bd 0c 83 1a bd
       -0.013779819 0.051479224 -0.11648989 -0.037722632
000290 9b dd e5 bd f0 09 e3 bd 36 87 b2 bd c0 50 47 bb
       -0.112239085 -0.1108588 -0.08717196 -0.003041312
0002a0 16 cb dc bd fd 0d 17 3e 76 fe cf bd 3b aa 97 3d
       -0.10780923 0.1475143 -0.101559564 0.07405516
0002b0 de b9 67 3d d1 33 fc bc d7 5d d5 bb c4 2e aa 3d
       0.05657374 -0.030786427 -0.0065114307 0.08309701
0002c0 23 4a 90 bd 0b 8f 25 3d 06 b5 6c bd 8e f8 f1 bd
       -0.070453905 0.04041962 -0.057789825 -0.11814986
0002d0 61 0c 32 3c 22 94 ca bd 64 c9 5d bd f4 2c ba bd
       0.010867209 -0.09891535 -0.05414714 -0.090906054
0002e0 a5 90 82 3b 01 f3 d7 bc 4f 4e 22 be 2d 7c fb 3d
       0.003984528 -0.02636099 -0.15850185 0.12279544
0002f0 00 ba 80 3c 63 4d da 3d fc 93 0a be cd 97 56 bd
       0.015713692 0.106592916 -0.13533014 -0.052390862
000300 1a 0a 15 be e1 50 e5 bc b6 01 07 3e ed 1f 27 bd
       -0.14554635 -0.027992668 0.13184246 -0.04080193
000310 3d 05 0c 3e 0a 5b bc bd 65 72 27 3d f5 ae f6 bd
       0.13673873 -0.09197052 0.04088058 -0.12045089
000320 53 5e e6 bd 4f ed 2a be df 87 ab bd 09 9e 07 3e
       -0.1124846 -0.16692089 -0.08375525 0.1324388
000330 e1 db 2a be f7 3a e6 bd 31 e7 9c bd ba 3f 3c be
       -0.1668544 -0.112417154 -0.07661284 -0.18383685
000340 8a 1b b4 3c 8d a8 a3 3c 6b 48 a2 3d 44 dc 1b 3e
       0.021985788 0.019977832 0.07923969 0.15220743
000350 ce 4e 00 be 47 18 98 bd 84 6c 73 3d bf ee 12 be
       -0.12530062 -0.074265055 0.05942966 -0.14348887
000360 bb 47 c2 be 18 b4 a0 3c f2 47 aa bc 46 39 8d be
       -0.3794535 0.019617125 -0.02078626 -0.2758276
000370 be 71 8e 3d 60 8b 44 be 4e 3f f2 be 95 2d 71 be
       0.06955288 -0.19193792 -0.47313923 -0.23552544
000380 aa 63 2d 3d 2f a0 87 3d 59 50 9a be d4 c4 27 3e
       0.042331375 0.066223495 -0.30139425 0.16383678
000390 a4 80 9c be 0b 11 46 be 2f 42 00 be a8 0f 16 3e
       -0.30566895 -0.19342439 -0.12525247 0.1465441
0003a0 a0 33 17 be 31 c2 6a bd 65 9b 16 be 87 6b 18 3d
       -0.14765787 -0.0573141 -0.14707716 0.03721192
0003b0 b6 fd 50 3d 8e 9c 07 3d d3 85 f8 bd ff 12 f1 3d
       0.051023208 0.033108287 -0.121349 0.11771201
0003c0 96 73 1a 3d f1 d1 01 3e f4 96 7f 3d 59 69 79 be
       0.037707888 0.12677743 0.06239982 -0.24356593
0003d0 2a 0a ee bd b9 d9 57 3d 25 ea 77 be 2d 65 fd bd
       -0.116230324 0.05269787 -0.24210413 -0.123728134
0003e0 95 17 0e bb 24 d3 80 be 5f 1f d0 bd 15 1d 5f 3b
       -0.0021681536 -0.25161088 -0.101622336 0.0034044434
0003f0 4e 65 2d 3e 89 0c 80 3e 87 cd be bd 23 c2 90 3e
       0.16933176 0.25009564 -0.09316545 0.28273115

functional_1_1/conv2d_1_2/Squeeze:0 f4 [16]
000000 86 41 43 bd c5 79 de 3c 67 c0 71 bc 7b 9a 19 be
       -0.04766991 0.027157674 -0.014755345 -0.15000336
000010 7c e1 01 3d a6 1d 87 3d c3 47 89 bb 43 dd 11 bc
       0.03170918 0.06597452 -0.004189463 -0.008902851
000020 e9 cc 42 3d fa 13 36 bd 45 b7 a5 3c 86 2c 11 3d
       0.0475587 -0.044452645 0.020228991 0.03544285
000030 0a ad 66 bd 5d f2 58 bc d1 1b c0 3c 6f 4d 65 bc
       -0.056317367 -0.013241378 0.023450764 -0.013995512

functional_1_1/conv2d_1/convolution/ReadVariableOp:0 f4 [8, 1, 3, 3]
000000 61 68 d0 3e 97 da 2d 3e 5d cd a8 be cb 8b d8 3e
       0.40704635 0.16977917 -0.3296918 0.42294154
000010 8f 47 5f be 71 16 c3 be 6b fe 67 3c 06 65 90 bd
       -0.21804641 -0.3810306 0.014159779 -0.07050519
000020 15 b7 17 be 36 b8 2f 3d 89 03 d3 3d 84 36 28 be
       -0.14815934 0.042900287 0.10303409 -0.16427046
000030 b5 96 83 be 59 e2 54 3c c7 ac ba 3d 28 10 bd 3d
       -0.25700918 0.012993419 0.09114986 0.09231597
000040 e7 55 2a bd bc 88 83 3e c9 68 ab bd 4a 84 69 be
       -0.04158583 0.25690258 -0.083695956 -0.2280437
000050 61 db d0 3b 4f 9f 0b bd 4b c6 06 be c3 87 bf bd
       0.0063738083 -0.034087475 -0.1316158 -0.09352066
000060 ec 3e 5a 3d ce 22 84 be cc 0e d8 bd a1 48 f2 3e
       0.053282663 -0.25807804 -0.10549697 0.47321036
000070 cc f0 b5 3d 0c ef b6 be e7 68 7c 3e c3 da 6f be
       0.08883819 -0.35729253 0.24649392 -0.23423295
000080 46 f8 4c be 9c cb 32 3e 67 dc 7c be 26 fa 22 bd
       -0.20016584 0.17460483 -0.24693452 -0.03978934
000090 44 33 24 be aa 9e f5 3e 7b 20 21 bd 65 76 75 3c
       -0.16035181 0.47972614 -0.039337616 0.014981841
0000a0 a2 e8 92 3e 36 ec d9 3e 8a 59 a5 be 2a d2 8d 3e
       0.2869311 0.42563027 -0.32294875 0.27699405
0000b0 c1 64 c0 3e a7 3a 4a 3d 7a 9d 6c 3e e2 ab e1 3e
       0.3757687 0.04937234 0.23106948 0.4407645
0000c0 41 e6 78 be 76 e7 fd bb 51 47 2c 3e dc 39 ac be
       -0.24306585 -0.0077485396 0.1682408 -0.33637893
0000d0 1e 22 89 3e 18 aa b8 3e 14 b7 05 3f 9c d9 8a 3e
       0.26783842 0.3606727 0.5223248 0.27119148
0000e0 14 69 c5 3e 46 63 e5 3d 41 7e ae 3e 9c 53 10 3e
       0.3855673 0.112005755 0.340807 0.14094394
0000f0 d2 b8 ca 3e 48 fb d8 3d fd 9e 38 3e 01 b1 38 3d
       0.39594132 0.10594803 0.18029399 0.04509068
000100 09 e7 b2 3e 2a 9a 7e 3a 29 52 fc 3e a7 61 99 3e
       0.3494189 0.0009712303 0.49281433 0.29957315
000110 13 d5 a7 bb f4 f3 cb 3e c4 e6 a6 3e 3f 57 b2 3e
       -0.005121836 0.3983456 0.32597935 0.34832188

functional_1_1/conv2d_1/Squeeze:0 f4 [8]
000000 dd 13 dc 3d b6 7b 39 3d 6d 7d a1 bc 76 8b a3 3d
       0.10745976 0.045283996 -0.019713128 0.079855844
000010 9f a3 50 be 17 e5 1a be 66 89 9b bd df 78 44 bd
       -0.20374916 -0.15126453 -0.07594566 -0.047966834
